…
ng` is deprecated. In future, it will be treated as `np.float64 == np.dtype(float).type`.
  from ._conv import register_converters as _register_converters
Using TensorFlow backend.
2018-03-08 12:46:03.343634: I tensorflow/core/platform/cpu_feature_guard.cc:137] Your CPU supports instructions that this TensorFlow binary was not compiled to use: SSE4.1 SSE4.2 AVX AVX2 FMA
_________________________________________________________________
Layer (type)                 Output Shape              Param #   
=================================================================
embedding_1 (Embedding)      (None, 25, 100)           550400    
_________________________________________________________________
batch_normalization_1 (Batch (None, 25, 100)           400       
_________________________________________________________________
spatial_dropout1d_1 (Spatial (None, 25, 100)           0         
_________________________________________________________________
conv1d_1 (Conv1D)            (None, 21, 250)           125250    
_________________________________________________________________
global_max_pooling1d_1 (Glob (None, 250)               0         
_________________________________________________________________
batch_normalization_2 (Batch (None, 250)               1000      
_________________________________________________________________
dropout_1 (Dropout)          (None, 250)               0         
_________________________________________________________________
dense_1 (Dense)              (None, 4)                 1004      
=================================================================
Total params: 678,054
Trainable params: 677,354
Non-trainable params: 700
_________________________________________________________________
Train on 1646 samples, validate on 144 samples
Epoch 1/100

  32/1646 [..............................] - ETA: 35s - loss: 1.9289 - acc: 0.2812
  64/1646 [>.............................] - ETA: 19s - loss: 2.3285 - acc: 0.2656
…
